…
 batch_normalization_205 (Batch  (None, 109, 109, 64  192        ['conv2d_205[0][0]']             
 Normalization)                 )                                                                 
                                                                                                  
 activation_205 (Activation)    (None, 109, 109, 64  0           ['batch_normalization_205[0][0]']
                                )                                                                 
                                                                                                  
 max_pooling2d_4 (MaxPooling2D)  (None, 54, 54, 64)  0           ['activation_205[0][0]']         
                                                                                                  
 conv2d_206 (Conv2D)            (None, 54, 54, 80)   5120        ['max_pooling2d_4[0][0]']        
                                                                                                  
 batch_normalization_206 (Batch  (None, 54, 54, 80)  240         ['conv2d_206[0][0]']             
 Normalization)                                                                                   
                                                                                                  
 activation_206 (Activation)    (None, 54, 54, 80)   0           ['batch_normalization_206[0][0]']
                                                                                                  
 conv2d_207 (Conv2D)            (None, 52, 52, 192)  138240      ['activation_206[0][0]']         
                                                                                                  
 batch_normalization_207 (Batch  (None, 52, 52, 192)  576        ['conv2d_207[0][0]']             
 Normalization)                                                                                   
                                                                                                  
 activation_207 (Activation)    (None, 52, 52, 192)  0           ['batch_normalization_207[0][0]']
                                                                                                  
 max_pooling2d_5 (MaxPooling2D)  (None, 25, 25, 192)  0          ['activation_207[0][0]']         
                                                                                                  
 conv2d_211 (Conv2D)            (None, 25, 25, 64)   12288       ['max_pooling2d_5[0][0]']        
                                                                                                  
 batch_normalization_211 (Batch  (None, 25, 25, 64)  192         ['conv2d_211[0][0]']             
 Normalization)                                                                                   
                                                                                                  
 activation_211 (Activation)    (None, 25, 25, 64)   0           ['batch_normalization_211[0][0]']
                                                                                                  
 conv2d_209 (Conv2D)            (None, 25, 25, 48)   9216        ['max_pooling2d_5[0][0]']        
                                                                                                  
 conv2d_212 (Conv2D)            (None, 25, 25, 96)   55296       ['activation_211[0][0]']         
                                                                                                  
 batch_normalization_209 (Batch  (None, 25, 25, 48)  144         ['conv2d_209[0][0]']             
 Normalization)                                                                                   
                                                                                                  
 batch_normalization_212 (Batch  (None, 25, 25, 96)  288         ['conv2d_212[0][0]']             
 Normalization)                                                                                   
                                                                                                  
 activation_209 (Activation)    (None, 25, 25, 48)   0           ['batch_normalization_209[0][0]']
                                                                                                  
 activation_212 (Activation)    (None, 25, 25, 96)   0           ['batch_normalization_212[0][0]']
                                                                                                  
 average_pooling2d_1 (AveragePo  (None, 25, 25, 192)  0          ['max_pooling2d_5[0][0]']        
 oling2D)                                                                                         
                                                                                                  
 conv2d_208 (Conv2D)            (None, 25, 25, 96)   18432       ['max_pooling2d_5[0][0]']        
                                                                                                  
 conv2d_210 (Conv2D)            (None, 25, 25, 64)   76800       ['activation_209[0][0]']         
                                                                                                  
 conv2d_213 (Conv2D)            (None, 25, 25, 96)   82944       ['activation_212[0][0]']         
                                                                                                  
 conv2d_214 (Conv2D)            (None, 25, 25, 64)   12288       ['average_pooling2d_1[0][0]']    
                                                                                                  
 batch_normalization_208 (Batch  (None, 25, 25, 96)  288         ['conv2d_208[0][0]']             
 Normalization)                                                                                   
                                                                                                  
 batch_normalization_210 (Batch  (None, 25, 25, 64)  192         ['conv2d_210[0][0]']             
 Normalization)                                                                                   
                                                                                                  
 batch_normalization_213 (Batch  (None, 25, 25, 96)  288         ['conv2d_213[0][0]']             
 Normalization)                                                                                   
                                                                                                  
 batch_normalization_214 (Batch  (None, 25, 25, 64)  192         ['conv2d_214[0][0]']             
 Normalization)                                                                                   
                                                                                                  
 activation_208 (Activation)    (None, 25, 25, 96)   0           ['batch_normalization_208[0][0]']
                                                                                                  
 activation_210 (Activation)    (None, 25, 25, 64)   0           ['batch_normalization_210[0][0]']
                                                                                                  
 activation_213 (Activation)    (None, 25, 25, 96)   0           ['batch_normalization_213[0][0]']
                                                                                                  
 activation_214 (Activation)    (None, 25, 25, 64)   0           ['batch_normalization_214[0][0]']
                                                                                                  
 mixed_5b (Concatenate)         (None, 25, 25, 320)  0           ['activation_208[0][0]',         
                                                                  'activation_210[0][0]',         
                                                                  'activation_213[0][0]',         
                                                                  'activation_214[0][0]']         
                                                                                                  
 conv2d_218 (Conv2D)            (None, 25, 25, 32)   10240       ['mixed_5b[0][0]']               
                                                                                                  
 batch_normalization_218 (Batch  (None, 25, 25, 32)  96          ['conv2d_218[0][0]']             
 Normalization)                                                                                   
                                                                                                  
 activation_218 (Activation)    (None, 25, 25, 32)   0           ['batch_normalization_218[0][0]']
                                                                                                  
 conv2d_216 (Conv2D)            (None, 25, 25, 32)   10240       ['mixed_5b[0][0]']               
                                                                                                  
 conv2d_219 (Conv2D)            (None, 25, 25, 48)   13824       ['activation_218[0][0]']         
                                                                                                  
 batch_normalization_216 (Batch  (None, 25, 25, 32)  96          ['conv2d_216[0][0]']             
 Normalization)                                                                                   
                                                                                                  
 batch_normalization_219 (Batch  (None, 25, 25, 48)  144         ['conv2d_219[0][0]']             
 Normalization)                                                                                   
                                                                                                  
 activation_216 (Activation)    (None, 25, 25, 32)   0           ['batch_normalization_216[0][0]']
                                                                                                  
 activation_219 (Activation)    (None, 25, 25, 48)   0           ['batch_normalization_219[0][0]']
                                                                                                  
 conv2d_215 (Conv2D)            (None, 25, 25, 32)   10240       ['mixed_5b[0][0]']               
                                                                                                  
 conv2d_217 (Conv2D)            (None, 25, 25, 32)   9216        ['activation_216[0][0]']         
                                                                                                  
 conv2d_220 (Conv2D)            (None, 25, 25, 64)   27648       ['activation_219[0][0]']         
                                                                                                  
 batch_normalization_215 (Batch  (None, 25, 25, 32)  96          ['conv2d_215[0][0]']             
 Normalization)                                                                                   
                                                                                                  
 batch_normalization_217 (Batch  (None, 25, 25, 32)  96          ['conv2d_217[0][0]']             
 Normalization)                                                                                   
                                                                                                  
 batch_normalization_220 (Batch  (None, 25, 25, 64)  192         ['conv2d_220[0][0]']             
 Normalization)                                                                                   
                                                                                                  
 activation_215 (Activation)    (None, 25, 25, 32)   0           ['batch_normalization_215[0][0]']
                                                                                                  
 activation_217 (Activation)    (None, 25, 25, 32)   0           ['batch_normalization_217[0][0]']
                                                                                                  
 activation_220 (Activation)    (None, 25, 25, 64)   0           ['batch_normalization_220[0][0]']
                                                                                                  
 block35_1_mixed (Concatenate)  (None, 25, 25, 128)  0           ['activation_215[0][0]',         
                                                                  'activation_217[0][0]',         
                                                                  'activation_220[0][0]']         
                                                                                                  
 block35_1_conv (Conv2D)        (None, 25, 25, 320)  41280       ['block35_1_mixed[0][0]']        
                                                                                                  
 block35_1 (Lambda)             (None, 25, 25, 320)  0           ['mixed_5b[0][0]',               
                                                                  'block35_1_conv[0][0]']         
                                                                                                  
 block35_1_ac (Activation)      (None, 25, 25, 320)  0           ['block35_1[0][0]']              
                                                                                                  
 conv2d_224 (Conv2D)            (None, 25, 25, 32)   10240       ['block35_1_ac[0][0]']           
                                                                                                  
 batch_normalization_224 (Batch  (None, 25, 25, 32)  96          ['conv2d_224[0][0]']             
 Normalization)                                                                                   
                                                                                                  
 activation_224 (Activation)    (None, 25, 25, 32)   0           ['batch_normalization_224[0][0]']
                                                                                                  
 conv2d_222 (Conv2D)            (None, 25, 25, 32)   10240       ['block35_1_ac[0][0]']           
                                                                                                  
 conv2d_225 (Conv2D)            (None, 25, 25, 48)   13824       ['activation_224[0][0]']         
                                                                                                  
 batch_normalization_222 (Batch  (None, 25, 25, 32)  96          ['conv2d_222[0][0]']             
 Normalization)                                                                                   
                                                                                                  
 batch_normalization_225 (Batch  (None, 25, 25, 48)  144         ['conv2d_225[0][0]']             
 Normalization)                                                                                   
                                                                                                  
 activation_222 (Activation)    (None, 25, 25, 32)   0           ['batch_normalization_222[0][0]']
                                                                                                  
 activation_225 (Activation)    (None, 25, 25, 48)   0           ['batch_normalization_225[0][0]']
                                                                                                  
 conv2d_221 (Conv2D)            (None, 25, 25, 32)   10240       ['block35_1_ac[0][0]']           
                                                                                                  
 conv2d_223 (Conv2D)            (None, 25, 25, 32)   9216        ['activation_222[0][0]']         
                                                                                                  
 conv2d_226 (Conv2D)            (None, 25, 25, 64)   27648       ['activation_225[0][0]']         
                                                                                                  
 batch_normalization_221 (Batch  (None, 25, 25, 32)  96          ['conv2d_221[0][0]']             
 Normalization)                                                                                   
                                                                                                  
 batch_normalization_223 (Batch  (None, 25, 25, 32)  96          ['conv2d_223[0][0]']             
 Normalization)                                                                                   
                                                                                                  
 batch_normalization_226 (Batch  (None, 25, 25, 64)  192         ['conv2d_226[0][0]']             
 Normalization)                                                                                   
                                                                                                  
 activation_221 (Activation)    (None, 25, 25, 32)   0           ['batch_normalization_221[0][0]']
                                                                                                  
 activation_223 (Activation)    (None, 25, 25, 32)   0           ['batch_normalization_223[0][0]']
                                                                                                  
 activation_226 (Activation)    (None, 25, 25, 64)   0           ['batch_normalization_226[0][0]']
                                                                                                  
 block35_2_mixed (Concatenate)  (None, 25, 25, 128)  0           ['activation_221[0][0]',         
                                                                  'activation_223[0][0]',         
                                                                  'activation_226[0][0]']         
                                                                                                  
 block35_2_conv (Conv2D)        (None, 25, 25, 320)  41280       ['block35_2_mixed[0][0]']        
                                                                                                  
 block35_2 (Lambda)             (None, 25, 25, 320)  0           ['block35_1_ac[0][0]',           
                                                                  'block35_2_conv[0][0]']         
                                                                                                  
 block35_2_ac (Activation)      (None, 25, 25, 320)  0           ['block35_2[0][0]']              
                                                                                                  
 conv2d_230 (Conv2D)            (None, 25, 25, 32)   10240       ['block35_2_ac[0][0]']           
                                                                                                  
 batch_normalization_230 (Batch  (None, 25, 25, 32)  96          ['conv2d_230[0][0]']             
 Normalization)                                                                                   
                                                                                                  
 activation_230 (Activation)    (None, 25, 25, 32)   0           ['batch_normalization_230[0][0]']
                                                                                                  
 conv2d_228 (Conv2D)            (None, 25, 25, 32)   10240       ['block35_2_ac[0][0]']           
                                                                                                  
 conv2d_231 (Conv2D)            (None, 25, 25, 48)   13824       ['activation_230[0][0]']         
                                                                                                  
 batch_normalization_228 (Batch  (None, 25, 25, 32)  96          ['conv2d_228[0][0]']             
 Normalization)                                                                                   
                                                                                                  
 batch_normalization_231 (Batch  (None, 25, 25, 48)  144         ['conv2d_231[0][0]']             
 Normalization)                                                                                   
                                                                                                  
 activation_228 (Activation)    (None, 25, 25, 32)   0           ['batch_normalization_228[0][0]']
                                                                                                  
 activation_231 (Activation)    (None, 25, 25, 48)   0           ['batch_normalization_231[0][0]']
                                                                                                  
 conv2d_227 (Conv2D)            (None, 25, 25, 32)   10240       ['block35_2_ac[0][0]']           
                                                                                                  
 conv2d_229 (Conv2D)            (None, 25, 25, 32)   9216        ['activation_228[0][0]']         
                                                                                                  
 conv2d_232 (Conv2D)            (None, 25, 25, 64)   27648       ['activation_231[0][0]']         
                                                                                                  
 batch_normalization_227 (Batch  (None, 25, 25, 32)  96          ['conv2d_227[0][0]']             
 Normalization)                                                                                   
                                                                                                  
 batch_normalization_229 (Batch  (None, 25, 25, 32)  96          ['conv2d_229[0][0]']             
 Normalization)                                                                                   
                                                                                                  
 batch_normalization_232 (Batch  (None, 25, 25, 64)  192         ['conv2d_232[0][0]']             
 Normalization)                                                                                   
                                                                                                  
 activation_227 (Activation)    (None, 25, 25, 32)   0           ['batch_normalization_227[0][0]']
                                                                                                  
 activation_229 (Activation)    (None, 25, 25, 32)   0           ['batch_normalization_229[0][0]']
                                                                                                  
 activation_232 (Activation)    (None, 25, 25, 64)   0           ['batch_normalization_232[0][0]']
                                                                                                  
 block35_3_mixed (Concatenate)  (None, 25, 25, 128)  0           ['activation_227[0][0]',         
                                                                  'activation_229[0][0]',         
                                                                  'activation_232[0][0]']         
                                                                                                  
 block35_3_conv (Conv2D)        (None, 25, 25, 320)  41280       ['block35_3_mixed[0][0]']        
                                                                                                  
 block35_3 (Lambda)             (None, 25, 25, 320)  0           ['block35_2_ac[0][0]',           
                                                                  'block35_3_conv[0][0]']         
                                                                                                  
 block35_3_ac (Activation)      (None, 25, 25, 320)  0           ['block35_3[0][0]']              
                                                                                                  
 conv2d_236 (Conv2D)            (None, 25, 25, 32)   10240       ['block35_3_ac[0][0]']           
                                                                                                  
 batch_normalization_236 (Batch  (None, 25, 25, 32)  96          ['conv2d_236[0][0]']             
 Normalization)                                                                                   
                                                                                                  
 activation_236 (Activation)    (None, 25, 25, 32)   0           ['batch_normalization_236[0][0]']
                                                                                                  
 conv2d_234 (Conv2D)            (None, 25, 25, 32)   10240       ['block35_3_ac[0][0]']           
                                                                                                  
 conv2d_237 (Conv2D)            (None, 25, 25, 48)   13824       ['activation_236[0][0]']         
                                                                                                  
 batch_normalization_234 (Batch  (None, 25, 25, 32)  96          ['conv2d_234[0][0]']             
 Normalization)                                                                                   
                                                                                                  
 batch_normalization_237 (Batch  (None, 25, 25, 48)  144         ['conv2d_237[0][0]']             
 Normalization)                                                                                   
                                                                                                  
 activation_234 (Activation)    (None, 25, 25, 32)   0           ['batch_normalization_234[0][0]']
                                                                                                  
 activation_237 (Activation)    (None, 25, 25, 48)   0           ['batch_normalization_237[0][0]']
                                                                                                  
 conv2d_233 (Conv2D)            (None, 25, 25, 32)   10240       ['block35_3_ac[0][0]']           
                                                                                                  
 conv2d_235 (Conv2D)            (None, 25, 25, 32)   9216        ['activation_234[0][0]']         
                                                                                                  
 conv2d_238 (Conv2D)            (None, 25, 25, 64)   27648       ['activation_237[0][0]']         
                                                                                                  
 batch_normalization_233 (Batch  (None, 25, 25, 32)  96          ['conv2d_233[0][0]']             
 Normalization)                                                                                   
                                                                                                  
 batch_normalization_235 (Batch  (None, 25, 25, 32)  96          ['conv2d_235[0][0]']             
 Normalization)                                                                                   
                                                                                                  
 batch_normalization_238 (Batch  (None, 25, 25, 64)  192         ['conv2d_238[0][0]']             
 Normalization)                                                                                   
                                                                                                  
 activation_233 (Activation)    (None, 25, 25, 32)   0           ['batch_normalization_233[0][0]']
                                                                                                  
 activation_235 (Activation)    (None, 25, 25, 32)   0           ['batch_normalization_235[0][0]']
                                                                                                  
 activation_238 (Activation)    (None, 25, 25, 64)   0           ['batch_normalization_238[0][0]']
                                                                                                  
 block35_4_mixed (Concatenate)  (None, 25, 25, 128)  0           ['activation_233[0][0]',         
                                                                  'activation_235[0][0]',         
                                                                  'activation_238[0][0]']         
                                                                                                  
 block35_4_conv (Conv2D)        (None, 25, 25, 320)  41280       ['block35_4_mixed[0][0]']        
                                                                                                  
 block35_4 (Lambda)             (None, 25, 25, 320)  0           ['block35_3_ac[0][0]',           
                                                                  'block35_4_conv[0][0]']         
                                                                                                  
 block35_4_ac (Activation)      (None, 25, 25, 320)  0           ['block35_4[0][0]']              
                                                                                                  
 conv2d_242 (Conv2D)            (None, 25, 25, 32)   10240       ['block35_4_ac[0][0]']           
                                                                                                  
 batch_normalization_242 (Batch  (None, 25, 25, 32)  96          ['conv2d_242[0][0]']             
 Normalization)                                                                                   
                                                                                                  
 activation_242 (Activation)    (None, 25, 25, 32)   0           ['batch_normalization_242[0][0]']
                                                                                                  
 conv2d_240 (Conv2D)            (None, 25, 25, 32)   10240       ['block35_4_ac[0][0]']           
                                                                                                  
 conv2d_243 (Conv2D)            (None, 25, 25, 48)   13824       ['activation_242[0][0]']         
                                                                                                  
 batch_normalization_240 (Batch  (None, 25, 25, 32)  96          ['conv2d_240[0][0]']             
 Normalization)                                                                                   
                                                                                                  
 batch_normalization_243 (Batch  (None, 25, 25, 48)  144         ['conv2d_243[0][0]']             
 Normalization)                                                                                   
                                                                                                  
 activation_240 (Activation)    (None, 25, 25, 32)   0           ['batch_normalization_240[0][0]']
                                                                                                  
 activation_243 (Activation)    (None, 25, 25, 48)   0           ['batch_normalization_243[0][0]']
                                                                                                  
 conv2d_239 (Conv2D)            (None, 25, 25, 32)   10240       ['block35_4_ac[0][0]']           
                                                                                                  
 conv2d_241 (Conv2D)            (None, 25, 25, 32)   9216        ['activation_240[0][0]']         
                                                                                                  
 conv2d_244 (Conv2D)            (None, 25, 25, 64)   27648       ['activation_243[0][0]']         
                                                                                                  
 batch_normalization_239 (Batch  (None, 25, 25, 32)  96          ['conv2d_239[0][0]']             
 Normalization)                                                                                   
                                                                                                  
 batch_normalization_241 (Batch  (None, 25, 25, 32)  96          ['conv2d_241[0][0]']             
 Normalization)                                                                                   
                                                                                                  
 batch_normalization_244 (Batch  (None, 25, 25, 64)  192         ['conv2d_244[0][0]']             
 Normalization)                                                                                   
                                                                                                  
 activation_239 (Activation)    (None, 25, 25, 32)   0           ['batch_normalization_239[0][0]']
                                                                                                  
 activation_241 (Activation)    (None, 25, 25, 32)   0           ['batch_normalization_241[0][0]']
                                                                                                  
 activation_244 (Activation)    (None, 25, 25, 64)   0           ['batch_normalization_244[0][0]']
                                                                                                  
 block35_5_mixed (Concatenate)  (None, 25, 25, 128)  0           ['activation_239[0][0]',         
                                                                  'activation_241[0][0]',         
                                                                  'activation_244[0][0]']         
                                                                                                  
 block35_5_conv (Conv2D)        (None, 25, 25, 320)  41280       ['block35_5_mixed[0][0]']        
                                                                                                  
 block35_5 (Lambda)             (None, 25, 25, 320)  0           ['block35_4_ac[0][0]',           
                                                                  'block35_5_conv[0][0]']         
                                                                                                  
 block35_5_ac (Activation)      (None, 25, 25, 320)  0           ['block35_5[0][0]']              
                                                                                                  
 conv2d_248 (Conv2D)            (None, 25, 25, 32)   10240       ['block35_5_ac[0][0]']           
                                                                                                  
 batch_normalization_248 (Batch  (None, 25, 25, 32)  96          ['conv2d_248[0][0]']             
 Normalization)                                                                                   
                                                                                                  
 activation_248 (Activation)    (None, 25, 25, 32)   0           ['batch_normalization_248[0][0]']
                                                                                                  
 conv2d_246 (Conv2D)            (None, 25, 25, 32)   10240       ['block35_5_ac[0][0]']           
                                                                                                  
 conv2d_249 (Conv2D)            (None, 25, 25, 48)   13824       ['activation_248[0][0]']         
                                                                                                  
 batch_normalization_246 (Batch  (None, 25, 25, 32)  96          ['conv2d_246[0][0]']             
 Normalization)                                                                                   
                                                                                                  
 batch_normalization_249 (Batch  (None, 25, 25, 48)  144         ['conv2d_249[0][0]']             
 Normalization)                                                                                   
                                                                                                  
 activation_246 (Activation)    (None, 25, 25, 32)   0           ['batch_normalization_246[0][0]']
                                                                                                  
 activation_249 (Activation)    (None, 25, 25, 48)   0           ['batch_normalization_249[0][0]']
                                                                                                  
 conv2d_245 (Conv2D)            (None, 25, 25, 32)   10240       ['block35_5_ac[0][0]']           
                                                                                                  
 conv2d_247 (Conv2D)            (None, 25, 25, 32)   9216        ['activation_246[0][0]']         
                                                                                                  
 conv2d_250 (Conv2D)            (None, 25, 25, 64)   27648       ['activation_249[0][0]']         
                                                                                                  
 batch_normalization_245 (Batch  (None, 25, 25, 32)  96          ['conv2d_245[0][0]']             
 Normalization)                                                                                   
                                                                                                  
 batch_normalization_247 (Batch  (None, 25, 25, 32)  96          ['conv2d_247[0][0]']             
 Normalization)                                                                                   
                                                                                                  
 batch_normalization_250 (Batch  (None, 25, 25, 64)  192         ['conv2d_250[0][0]']             
 Normalization)                                                                                   
                                                                                                  
 activation_245 (Activation)    (None, 25, 25, 32)   0           ['batch_normalization_245[0][0]']
                                                                                                  
 activation_247 (Activation)    (None, 25, 25, 32)   0           ['batch_normalization_247[0][0]']
                                                                                                  
 activation_250 (Activation)    (None, 25, 25, 64)   0           ['batch_normalization_250[0][0]']
                                                                                                  
 block35_6_mixed (Concatenate)  (None, 25, 25, 128)  0           ['activation_245[0][0]',         
                                                                  'activation_247[0][0]',         
                                                                  'activation_250[0][0]']         
                                                                                                  
 block35_6_conv (Conv2D)        (None, 25, 25, 320)  41280       ['block35_6_mixed[0][0]']        
                                                                                                  
 block35_6 (Lambda)             (None, 25, 25, 320)  0           ['block35_5_ac[0][0]',           
                                                                  'block35_6_conv[0][0]']         
                                                                                                  
 block35_6_ac (Activation)      (None, 25, 25, 320)  0           ['block35_6[0][0]']              
                                                                                                  
 conv2d_254 (Conv2D)            (None, 25, 25, 32)   10240       ['block35_6_ac[0][0]']           
                                                                                                  
 batch_normalization_254 (Batch  (None, 25, 25, 32)  96          ['conv2d_254[0][0]']             
 Normalization)                                                                                   
                                                                                                  
 activation_254 (Activation)    (None, 25, 25, 32)   0           ['batch_normalization_254[0][0]']
                                                                                                  
 conv2d_252 (Conv2D)            (None, 25, 25, 32)   10240       ['block35_6_ac[0][0]']           
                                                                                                  
 conv2d_255 (Conv2D)            (None, 25, 25, 48)   13824       ['activation_254[0][0]']         
                                                                                                  
 batch_normalization_252 (Batch  (None, 25, 25, 32)  96          ['conv2d_252[0][0]']             
 Normalization)                                                                                   
                                                                                                  
 batch_normalization_255 (Batch  (None, 25, 25, 48)  144         ['conv2d_255[0][0]']             
 Normalization)                                                                                   
                                                                                                  
 activation_252 (Activation)    (None, 25, 25, 32)   0           ['batch_normalization_252[0][0]']
                                                                                                  
 activation_255 (Activation)    (None, 25, 25, 48)   0           ['batch_normalization_255[0][0]']
                                                                                                  
 conv2d_251 (Conv2D)            (None, 25, 25, 32)   10240       ['block35_6_ac[0][0]']           
                                                                                                  
 conv2d_253 (Conv2D)            (None, 25, 25, 32)   9216        ['activation_252[0][0]']         
                                                                                                  
 conv2d_256 (Conv2D)            (None, 25, 25, 64)   27648       ['activation_255[0][0]']         
                                                                                                  
 batch_normalization_251 (Batch  (None, 25, 25, 32)  96          ['conv2d_251[0][0]']             
 Normalization)                                                                                   
                                                                                                  
 batch_normalization_253 (Batch  (None, 25, 25, 32)  96          ['conv2d_253[0][0]']             
 Normalization)                                                                                   
                                                                                                  
 batch_normalization_256 (Batch  (None, 25, 25, 64)  192         ['conv2d_256[0][0]']             
 Normalization)                                                                                   
                                                                                                  
 activation_251 (Activation)    (None, 25, 25, 32)   0           ['batch_normalization_251[0][0]']
                                                                                                  
 activation_253 (Activation)    (None, 25, 25, 32)   0           ['batch_normalization_253[0][0]']
                                                                                                  
 activation_256 (Activation)    (None, 25, 25, 64)   0           ['batch_normalization_256[0][0]']
                                                                                                  
 block35_7_mixed (Concatenate)  (None, 25, 25, 128)  0           ['activation_251[0][0]',         
                                                                  'activation_253[0][0]',         
                                                                  'activation_256[0][0]']         
                                                                                                  
 block35_7_conv (Conv2D)        (None, 25, 25, 320)  41280       ['block35_7_mixed[0][0]']        
                                                                                                  
 block35_7 (Lambda)             (None, 25, 25, 320)  0           ['block35_6_ac[0][0]',           
                                                                  'block35_7_conv[0][0]']         
                                                                                                  
 block35_7_ac (Activation)      (None, 25, 25, 320)  0           ['block35_7[0][0]']              
                                                                                                  
 conv2d_260 (Conv2D)            (None, 25, 25, 32)   10240       ['block35_7_ac[0][0]']           
                                                                                                  
 batch_normalization_260 (Batch  (None, 25, 25, 32)  96          ['conv2d_260[0][0]']             
 Normalization)                                                                                   
                                                                                                  
 activation_260 (Activation)    (None, 25, 25, 32)   0           ['batch_normalization_260[0][0]']
                                                                                                  
 conv2d_258 (Conv2D)            (None, 25, 25, 32)   10240       ['block35_7_ac[0][0]']           
                                                                                                  
 conv2d_261 (Conv2D)            (None, 25, 25, 48)   13824       ['activation_260[0][0]']         
                                                                                                  
 batch_normalization_258 (Batch  (None, 25, 25, 32)  96          ['conv2d_258[0][0]']             
 Normalization)                                                                                   
                                                                                                  
 batch_normalization_261 (Batch  (None, 25, 25, 48)  144         ['conv2d_261[0][0]']             
 Normalization)                                                                                   
                                                                                                  
 activation_258 (Activation)    (None, 25, 25, 32)   0           ['batch_normalization_258[0][0]']
                                                                                                  
 activation_261 (Activation)    (None, 25, 25, 48)   0           ['batch_normalization_261[0][0]']
                                                                                                  
 conv2d_257 (Conv2D)            (None, 25, 25, 32)   10240       ['block35_7_ac[0][0]']           
                                                                                                  
 conv2d_259 (Conv2D)            (None, 25, 25, 32)   9216        ['activation_258[0][0]']         
                                                                                                  
 conv2d_262 (Conv2D)            (None, 25, 25, 64)   27648       ['activation_261[0][0]']         
                                                                                                  
 batch_normalization_257 (Batch  (None, 25, 25, 32)  96          ['conv2d_257[0][0]']             
 Normalization)                                                                                   
                                                                                                  
 batch_normalization_259 (Batch  (None, 25, 25, 32)  96          ['conv2d_259[0][0]']             
 Normalization)                                                                                   
                                                                                                  
 batch_normalization_262 (Batch  (None, 25, 25, 64)  192         ['conv2d_262[0][0]']             
 Normalization)                                                                                   
                                                                                                  
 activation_257 (Activation)    (None, 25, 25, 32)   0           ['batch_normalization_257[0][0]']
                                                                                                  
 activation_259 (Activation)    (None, 25, 25, 32)   0           ['batch_normalization_259[0][0]']
                                                                                                  
 activation_262 (Activation)    (None, 25, 25, 64)   0           ['batch_normalization_262[0][0]']
                                                                                                  
 block35_8_mixed (Concatenate)  (None, 25, 25, 128)  0           ['activation_257[0][0]',         
                                                                  'activation_259[0][0]',         
                                                                  'activation_262[0][0]']         
                                                                                                  
 block35_8_conv (Conv2D)        (None, 25, 25, 320)  41280       ['block35_8_mixed[0][0]']        
                                                                                                  
 block35_8 (Lambda)             (None, 25, 25, 320)  0           ['block35_7_ac[0][0]',           
                                                                  'block35_8_conv[0][0]']         
                                                                                                  
 block35_8_ac (Activation)      (None, 25, 25, 320)  0           ['block35_8[0][0]']              
                                                                                                  
 conv2d_266 (Conv2D)            (None, 25, 25, 32)   10240       ['block35_8_ac[0][0]']           
                                                                                                  
 batch_normalization_266 (Batch  (None, 25, 25, 32)  96          ['conv2d_266[0][0]']             
 Normalization)                                                                                   
                                                                                                  
 activation_266 (Activation)    (None, 25, 25, 32)   0           ['batch_normalization_266[0][0]']
                                                                                                  
 conv2d_264 (Conv2D)            (None, 25, 25, 32)   10240       ['block35_8_ac[0][0]']           
                                                                                                  
 conv2d_267 (Conv2D)            (None, 25, 25, 48)   13824       ['activation_266[0][0]']         
                                                                                                  
 batch_normalization_264 (Batch  (None, 25, 25, 32)  96          ['conv2d_264[0][0]']             
 Normalization)                                                                                   
                                                                                                  
 batch_normalization_267 (Batch  (None, 25, 25, 48)  144         ['conv2d_267[0][0]']             
 Normalization)                                                                                   
                                                                                                  
 activation_264 (Activation)    (None, 25, 25, 32)   0           ['batch_normalization_264[0][0]']
                                                                                                  
 activation_267 (Activation)    (None, 25, 25, 48)   0           ['batch_normalization_267[0][0]']
                                                                                                  
 conv2d_263 (Conv2D)            (None, 25, 25, 32)   10240       ['block35_8_ac[0][0]']           
                                                                                                  
 conv2d_265 (Conv2D)            (None, 25, 25, 32)   9216        ['activation_264[0][0]']         
                                                                                                  
 conv2d_268 (Conv2D)            (None, 25, 25, 64)   27648       ['activation_267[0][0]']         
                                                                                                  
 batch_normalization_263 (Batch  (None, 25, 25, 32)  96          ['conv2d_263[0][0]']             
 Normalization)                                                                                   
                                                                                                  
 batch_normalization_265 (Batch  (None, 25, 25, 32)  96          ['conv2d_265[0][0]']             
 Normalization)                                                                                   
                                                                                                  
 batch_normalization_268 (Batch  (None, 25, 25, 64)  192         ['conv2d_268[0][0]']             
 Normalization)                                                                                   
                                                                                                  
 activation_263 (Activation)    (None, 25, 25, 32)   0           ['batch_normalization_263[0][0]']
                                                                                                  
 activation_265 (Activation)    (None, 25, 25, 32)   0           ['batch_normalization_265[0][0]']
                                                                                                  
 activation_268 (Activation)    (None, 25, 25, 64)   0           ['batch_normalization_268[0][0]']
                                                                                                  
 block35_9_mixed (Concatenate)  (None, 25, 25, 128)  0           ['activation_263[0][0]',         
                                                                  'activation_265[0][0]',         
                                                                  'activation_268[0][0]']         
                                                                                                  
 block35_9_conv (Conv2D)        (None, 25, 25, 320)  41280       ['block35_9_mixed[0][0]']        
                                                                                                  
 block35_9 (Lambda)             (None, 25, 25, 320)  0           ['block35_8_ac[0][0]',           
                                                                  'block35_9_conv[0][0]']         
                                                                                                  
 block35_9_ac (Activation)      (None, 25, 25, 320)  0           ['block35_9[0][0]']              
                                                                                                  
 conv2d_272 (Conv2D)            (None, 25, 25, 32)   10240       ['block35_9_ac[0][0]']           
                                                                                                  
 batch_normalization_272 (Batch  (None, 25, 25, 32)  96          ['conv2d_272[0][0]']             
 Normalization)                                                                                   
                                                                                                  
 activation_272 (Activation)    (None, 25, 25, 32)   0           ['batch_normalization_272[0][0]']
                                                                                                  
 conv2d_270 (Conv2D)            (None, 25, 25, 32)   10240       ['block35_9_ac[0][0]']           
                                                                                                  
 conv2d_273 (Conv2D)            (None, 25, 25, 48)   13824       ['activation_272[0][0]']         
                                                                                                  
 batch_normalization_270 (Batch  (None, 25, 25, 32)  96          ['conv2d_270[0][0]']             
 Normalization)                                                                                   
                                                                                                  
 batch_normalization_273 (Batch  (None, 25, 25, 48)  144         ['conv2d_273[0][0]']             
 Normalization)                                                                                   
                                                                                                  
 activation_270 (Activation)    (None, 25, 25, 32)   0           ['batch_normalization_270[0][0]']
                                                                                                  
 activation_273 (Activation)    (None, 25, 25, 48)   0           ['batch_normalization_273[0][0]']
                                                                                                  
 conv2d_269 (Conv2D)            (None, 25, 25, 32)   10240       ['block35_9_ac[0][0]']           
                                                                                                  
 conv2d_271 (Conv2D)            (None, 25, 25, 32)   9216        ['activation_270[0][0]']         
                                                                                                  
 conv2d_274 (Conv2D)            (None, 25, 25, 64)   27648       ['activation_273[0][0]']         
                                                                                                  
 batch_normalization_269 (Batch  (None, 25, 25, 32)  96          ['conv2d_269[0][0]']             
 Normalization)                                                                                   
                                                                                                  
 batch_normalization_271 (Batch  (None, 25, 25, 32)  96          ['conv2d_271[0][0]']             
 Normalization)                                                                                   
                                                                                                  
 batch_normalization_274 (Batch  (None, 25, 25, 64)  192         ['conv2d_274[0][0]']             
 Normalization)                                                                                   
                                                                                                  
 activation_269 (Activation)    (None, 25, 25, 32)   0           ['batch_normalization_269[0][0]']
                                                                                                  
 activation_271 (Activation)    (None, 25, 25, 32)   0           ['batch_normalization_271[0][0]']
                                                                                                  
 activation_274 (Activation)    (None, 25, 25, 64)   0           ['batch_normalization_274[0][0]']
                                                                                                  
 block35_10_mixed (Concatenate)  (None, 25, 25, 128)  0          ['activation_269[0][0]',         
                                                                  'activation_271[0][0]',         
                                                                  'activation_274[0][0]']         
                                                                                                  
 block35_10_conv (Conv2D)       (None, 25, 25, 320)  41280       ['block35_10_mixed[0][0]']       
                                                                                                  
 block35_10 (Lambda)            (None, 25, 25, 320)  0           ['block35_9_ac[0][0]',           
                                                                  'block35_10_conv[0][0]']        
                                                                                                  
 block35_10_ac (Activation)     (None, 25, 25, 320)  0           ['block35_10[0][0]']             
                                                                                                  
 conv2d_276 (Conv2D)            (None, 25, 25, 256)  81920       ['block35_10_ac[0][0]']          
                                                                                                  
 batch_normalization_276 (Batch  (None, 25, 25, 256)  768        ['conv2d_276[0][0]']             
 Normalization)                                                                                   
                                                                                                  
 activation_276 (Activation)    (None, 25, 25, 256)  0           ['batch_normalization_276[0][0]']
                                                                                                  
 conv2d_277 (Conv2D)            (None, 25, 25, 256)  589824      ['activation_276[0][0]']         
                                                                                                  
 batch_normalization_277 (Batch  (None, 25, 25, 256)  768        ['conv2d_277[0][0]']             
 Normalization)                                                                                   
                                                                                                  
 activation_277 (Activation)    (None, 25, 25, 256)  0           ['batch_normalization_277[0][0]']
                                                                                                  
 conv2d_275 (Conv2D)            (None, 12, 12, 384)  1105920     ['block35_10_ac[0][0]']          
                                                                                                  
 conv2d_278 (Conv2D)            (None, 12, 12, 384)  884736      ['activation_277[0][0]']         
                                                                                                  
 batch_normalization_275 (Batch  (None, 12, 12, 384)  1152       ['conv2d_275[0][0]']             
 Normalization)                                                                                   
                                                                                                  
 batch_normalization_278 (Batch  (None, 12, 12, 384)  1152       ['conv2d_278[0][0]']             
 Normalization)                                                                                   
                                                                                                  
 activation_275 (Activation)    (None, 12, 12, 384)  0           ['batch_normalization_275[0][0]']
                                                                                                  
 activation_278 (Activation)    (None, 12, 12, 384)  0           ['batch_normalization_278[0][0]']
                                                                                                  
 max_pooling2d_6 (MaxPooling2D)  (None, 12, 12, 320)  0          ['block35_10_ac[0][0]']          
                                                                                                  
 mixed_6a (Concatenate)         (None, 12, 12, 1088  0           ['activation_275[0][0]',         
                                )                                 'activation_278[0][0]',         
                                                                  'max_pooling2d_6[0][0]']        
                                                                                                  
 conv2d_280 (Conv2D)            (None, 12, 12, 128)  139264      ['mixed_6a[0][0]']               
                                                                                                  
 batch_normalization_280 (Batch  (None, 12, 12, 128)  384        ['conv2d_280[0][0]']             
 Normalization)                                                                                   
                                                                                                  
 activation_280 (Activation)    (None, 12, 12, 128)  0           ['batch_normalization_280[0][0]']
                                                                                                  
 conv2d_281 (Conv2D)            (None, 12, 12, 160)  143360      ['activation_280[0][0]']         
                                                                                                  
 batch_normalization_281 (Batch  (None, 12, 12, 160)  480        ['conv2d_281[0][0]']             
 Normalization)                                                                                   
                                                                                                  
 activation_281 (Activation)    (None, 12, 12, 160)  0           ['batch_normalization_281[0][0]']
                                                                                                  
 conv2d_279 (Conv2D)            (None, 12, 12, 192)  208896      ['mixed_6a[0][0]']               
                                                                                                  
 conv2d_282 (Conv2D)            (None, 12, 12, 192)  215040      ['activation_281[0][0]']         
                                                                                                  
 batch_normalization_279 (Batch  (None, 12, 12, 192)  576        ['conv2d_279[0][0]']             
 Normalization)                                                                                   
                                                                                                  
 batch_normalization_282 (Batch  (None, 12, 12, 192)  576        ['conv2d_282[0][0]']             
 Normalization)                                                                                   
                                                                                                  
 activation_279 (Activation)    (None, 12, 12, 192)  0           ['batch_normalization_279[0][0]']
                                                                                                  
 activation_282 (Activation)    (None, 12, 12, 192)  0           ['batch_normalization_282[0][0]']
                                                                                                  
 block17_1_mixed (Concatenate)  (None, 12, 12, 384)  0           ['activation_279[0][0]',         
                                                                  'activation_282[0][0]']         
                                                                                                  
 block17_1_conv (Conv2D)        (None, 12, 12, 1088  418880      ['block17_1_mixed[0][0]']        
                                )                                                                 
…
 block17_1 (Lambda)             (None, 12, 12, 1088  0           ['mixed_6a[0][0]',               
                                )                                 'block17_1_conv[0][0]']         
                                                                                                  
 block17_1_ac (Activation)      (None, 12, 12, 1088  0           ['block17_1[0][0]']              
                                )                                                                 
                                                                                                  
 conv2d_284 (Conv2D)            (None, 12, 12, 128)  139264      ['block17_1_ac[0][0]']           
                                                                                                  
 batch_normalization_284 (Batch  (None, 12, 12, 128)  384        ['conv2d_284[0][0]']             
 Normalization)                                                                                   
                                                                                                  
 activation_284 (Activation)    (None, 12, 12, 128)  0           ['batch_normalization_284[0][0]']
                                                                                                  
 conv2d_285 (Conv2D)            (None, 12, 12, 160)  143360      ['activation_284[0][0]']         
                                                                                                  
 batch_normalization_285 (Batch  (None, 12, 12, 160)  480        ['conv2d_285[0][0]']             
 Normalization)                                                                                   
                                                                                                  
 activation_285 (Activation)    (None, 12, 12, 160)  0           ['batch_normalization_285[0][0]']
                                                                                                  
 conv2d_283 (Conv2D)            (None, 12, 12, 192)  208896      ['block17_1_ac[0][0]']           
                                                                                                  
 conv2d_286 (Conv2D)            (None, 12, 12, 192)  215040      ['activation_285[0][0]']         
                                                                                                  
 batch_normalization_283 (Batch  (None, 12, 12, 192)  576        ['conv2d_283[0][0]']             
 Normalization)                                                                                   
                                                                                                  
 batch_normalization_286 (Batch  (None, 12, 12, 192)  576        ['conv2d_286[0][0]']             
 Normalization)                                                                                   
                                                                                                  
 activation_283 (Activation)    (None, 12, 12, 192)  0           ['batch_normalization_283[0][0]']
                                                                                                  
 activation_286 (Activation)    (None, 12, 12, 192)  0           ['batch_normalization_286[0][0]']
                                                                                                  
 block17_2_mixed (Concatenate)  (None, 12, 12, 384)  0           ['activation_283[0][0]',         
                                                                  'activation_286[0][0]']         
                                                                                                  
 block17_2_conv (Conv2D)        (None, 12, 12, 1088  418880      ['block17_2_mixed[0][0]']        
                                )                                                                 
…
 block17_20 (Lambda)            (None, 12, 12, 1088  0           ['block17_19_ac[0][0]',          
                                )                                 'block17_20_conv[0][0]']        
                                                                                                  
 block17_20_ac (Activation)     (None, 12, 12, 1088  0           ['block17_20[0][0]']             
                                )                                                                 
                                                                                                  
 conv2d_363 (Conv2D)            (None, 12, 12, 256)  278528      ['block17_20_ac[0][0]']          
                                                                                                  
 batch_normalization_363 (Batch  (None, 12, 12, 256)  768        ['conv2d_363[0][0]']             
 Normalization)                                                                                   
                                                                                                  
 activation_363 (Activation)    (None, 12, 12, 256)  0           ['batch_normalization_363[0][0]']
                                                                                                  
 conv2d_359 (Conv2D)            (None, 12, 12, 256)  278528      ['block17_20_ac[0][0]']          
                                                                                                  
 conv2d_361 (Conv2D)            (None, 12, 12, 256)  278528      ['block17_20_ac[0][0]']          
                                                                                                  
 conv2d_364 (Conv2D)            (None, 12, 12, 288)  663552      ['activation_363[0][0]']         
                                                                                                  
 batch_normalization_359 (Batch  (None, 12, 12, 256)  768        ['conv2d_359[0][0]']             
 Normalization)                                                                                   
                                                                                                  
 batch_normalization_361 (Batch  (None, 12, 12, 256)  768        ['conv2d_361[0][0]']             
 Normalization)                                                                                   
                                                                                                  
 batch_normalization_364 (Batch  (None, 12, 12, 288)  864        ['conv2d_364[0][0]']             
 Normalization)                                                                                   
                                                                                                  
 activation_359 (Activation)    (None, 12, 12, 256)  0           ['batch_normalization_359[0][0]']
                                                                                                  
 activation_361 (Activation)    (None, 12, 12, 256)  0           ['batch_normalization_361[0][0]']
                                                                                                  
 activation_364 (Activation)    (None, 12, 12, 288)  0           ['batch_normalization_364[0][0]']
                                                                                                  
 conv2d_360 (Conv2D)            (None, 5, 5, 384)    884736      ['activation_359[0][0]']         
                                                                                                  
 conv2d_362 (Conv2D)            (None, 5, 5, 288)    663552      ['activation_361[0][0]']         
                                                                                                  
 conv2d_365 (Conv2D)            (None, 5, 5, 320)    829440      ['activation_364[0][0]']         
                                                                                                  
 batch_normalization_360 (Batch  (None, 5, 5, 384)   1152        ['conv2d_360[0][0]']             
 Normalization)                                                                                   
                                                                                                  
 batch_normalization_362 (Batch  (None, 5, 5, 288)   864         ['conv2d_362[0][0]']             
 Normalization)                                                                                   
                                                                                                  
 batch_normalization_365 (Batch  (None, 5, 5, 320)   960         ['conv2d_365[0][0]']             
 Normalization)                                                                                   
                                                                                                  
 activation_360 (Activation)    (None, 5, 5, 384)    0           ['batch_normalization_360[0][0]']
                                                                                                  
 activation_362 (Activation)    (None, 5, 5, 288)    0           ['batch_normalization_362[0][0]']
                                                                                                  
 activation_365 (Activation)    (None, 5, 5, 320)    0           ['batch_normalization_365[0][0]']
                                                                                                  
 max_pooling2d_7 (MaxPooling2D)  (None, 5, 5, 1088)  0           ['block17_20_ac[0][0]']          
                                                                                                  
 mixed_7a (Concatenate)         (None, 5, 5, 2080)   0           ['activation_360[0][0]',         
                                                                  'activation_362[0][0]',         
                                                                  'activation_365[0][0]',         
                                                                  'max_pooling2d_7[0][0]']        
                                                                                                  
 conv2d_367 (Conv2D)            (None, 5, 5, 192)    399360      ['mixed_7a[0][0]']               
                                                                                                  
 batch_normalization_367 (Batch  (None, 5, 5, 192)   576         ['conv2d_367[0][0]']             
 Normalization)                                                                                   
                                                                                                  
 activation_367 (Activation)    (None, 5, 5, 192)    0           ['batch_normalization_367[0][0]']
                                                                                                  
 conv2d_368 (Conv2D)            (None, 5, 5, 224)    129024      ['activation_367[0][0]']         
                                                                                                  
 batch_normalization_368 (Batch  (None, 5, 5, 224)   672         ['conv2d_368[0][0]']             
 Normalization)                                                                                   
                                                                                                  
 activation_368 (Activation)    (None, 5, 5, 224)    0           ['batch_normalization_368[0][0]']
                                                                                                  
 conv2d_366 (Conv2D)            (None, 5, 5, 192)    399360      ['mixed_7a[0][0]']               
                                                                                                  
 conv2d_369 (Conv2D)            (None, 5, 5, 256)    172032      ['activation_368[0][0]']         
                                                                                                  
 batch_normalization_366 (Batch  (None, 5, 5, 192)   576         ['conv2d_366[0][0]']             
 Normalization)                                                                                   
                                                                                                  
 batch_normalization_369 (Batch  (None, 5, 5, 256)   768         ['conv2d_369[0][0]']             
 Normalization)                                                                                   
                                                                                                  
 activation_366 (Activation)    (None, 5, 5, 192)    0           ['batch_normalization_366[0][0]']
                                                                                                  
 activation_369 (Activation)    (None, 5, 5, 256)    0           ['batch_normalization_369[0][0]']
                                                                                                  
 block8_1_mixed (Concatenate)   (None, 5, 5, 448)    0           ['activation_366[0][0]',         
                                                                  'activation_369[0][0]']         
                                                                                                  
 block8_1_conv (Conv2D)         (None, 5, 5, 2080)   933920      ['block8_1_mixed[0][0]']         
                                                                                                  
 block8_1 (Lambda)              (None, 5, 5, 2080)   0           ['mixed_7a[0][0]',               
                                                                  'block8_1_conv[0][0]']          
                                                                                                  
 block8_1_ac (Activation)       (None, 5, 5, 2080)   0           ['block8_1[0][0]']               
                                                                                                  
 conv2d_371 (Conv2D)            (None, 5, 5, 192)    399360      ['block8_1_ac[0][0]']            
                                                                                                  
 batch_normalization_371 (Batch  (None, 5, 5, 192)   576         ['conv2d_371[0][0]']             
 Normalization)                                                                                   
                                                                                                  
 activation_371 (Activation)    (None, 5, 5, 192)    0           ['batch_normalization_371[0][0]']
                                                                                                  
 conv2d_372 (Conv2D)            (None, 5, 5, 224)    129024      ['activation_371[0][0]']         
                                                                                                  
 batch_normalization_372 (Batch  (None, 5, 5, 224)   672         ['conv2d_372[0][0]']             
 Normalization)                                                                                   
                                                                                                  
 activation_372 (Activation)    (None, 5, 5, 224)    0           ['batch_normalization_372[0][0]']
                                                                                                  
 conv2d_370 (Conv2D)            (None, 5, 5, 192)    399360      ['block8_1_ac[0][0]']            
                                                                                                  
 conv2d_373 (Conv2D)            (None, 5, 5, 256)    172032      ['activation_372[0][0]']         
                                                                                                  
 batch_normalization_370 (Batch  (None, 5, 5, 192)   576         ['conv2d_370[0][0]']             
 Normalization)                                                                                   
                                                                                                  
 batch_normalization_373 (Batch  (None, 5, 5, 256)   768         ['conv2d_373[0][0]']             
 Normalization)                                                                                   
                                                                                                  
 activation_370 (Activation)    (None, 5, 5, 192)    0           ['batch_normalization_370[0][0]']
                                                                                                  
 activation_373 (Activation)    (None, 5, 5, 256)    0           ['batch_normalization_373[0][0]']
                                                                                                  
 block8_2_mixed (Concatenate)   (None, 5, 5, 448)    0           ['activation_370[0][0]',         
                                                                  'activation_373[0][0]']         
                                                                                                  
 block8_2_conv (Conv2D)         (None, 5, 5, 2080)   933920      ['block8_2_mixed[0][0]']         
                                                                                                  
 block8_2 (Lambda)              (None, 5, 5, 2080)   0           ['block8_1_ac[0][0]',            
                                                                  'block8_2_conv[0][0]']          
                                                                                                  
 block8_2_ac (Activation)       (None, 5, 5, 2080)   0           ['block8_2[0][0]']               
                                                                                                  
 conv2d_375 (Conv2D)            (None, 5, 5, 192)    399360      ['block8_2_ac[0][0]']            
                                                                                                  
 batch_normalization_375 (Batch  (None, 5, 5, 192)   576         ['conv2d_375[0][0]']             
 Normalization)                                                                                   
                                                                                                  
 activation_375 (Activation)    (None, 5, 5, 192)    0           ['batch_normalization_375[0][0]']
                                                                                                  
 conv2d_376 (Conv2D)            (None, 5, 5, 224)    129024      ['activation_375[0][0]']         
                                                                                                  
 batch_normalization_376 (Batch  (None, 5, 5, 224)   672         ['conv2d_376[0][0]']             
 Normalization)                                                                                   
                                                                                                  
 activation_376 (Activation)    (None, 5, 5, 224)    0           ['batch_normalization_376[0][0]']
                                                                                                  
 conv2d_374 (Conv2D)            (None, 5, 5, 192)    399360      ['block8_2_ac[0][0]']            
                                                                                                  
 conv2d_377 (Conv2D)            (None, 5, 5, 256)    172032      ['activation_376[0][0]']         
                                                                                                  
 batch_normalization_374 (Batch  (None, 5, 5, 192)   576         ['conv2d_374[0][0]']             
 Normalization)                                                                                   
                                                                                                  
 batch_normalization_377 (Batch  (None, 5, 5, 256)   768         ['conv2d_377[0][0]']             
 Normalization)                                                                                   
                                                                                                  
 activation_374 (Activation)    (None, 5, 5, 192)    0           ['batch_normalization_374[0][0]']
                                                                                                  
 activation_377 (Activation)    (None, 5, 5, 256)    0           ['batch_normalization_377[0][0]']
                                                                                                  
 block8_3_mixed (Concatenate)   (None, 5, 5, 448)    0           ['activation_374[0][0]',         
                                                                  'activation_377[0][0]']         
                                                                                                  
 block8_3_conv (Conv2D)         (None, 5, 5, 2080)   933920      ['block8_3_mixed[0][0]']         
                                                                                                  
 block8_3 (Lambda)              (None, 5, 5, 2080)   0           ['block8_2_ac[0][0]',            
                                                                  'block8_3_conv[0][0]']          
                                                                                                  
 block8_3_ac (Activation)       (None, 5, 5, 2080)   0           ['block8_3[0][0]']               
                                                                                                  
 conv2d_379 (Conv2D)            (None, 5, 5, 192)    399360      ['block8_3_ac[0][0]']            
                                                                                                  
 batch_normalization_379 (Batch  (None, 5, 5, 192)   576         ['conv2d_379[0][0]']             
 Normalization)                                                                                   
                                                                                                  
 activation_379 (Activation)    (None, 5, 5, 192)    0           ['batch_normalization_379[0][0]']
                                                                                                  
 conv2d_380 (Conv2D)            (None, 5, 5, 224)    129024      ['activation_379[0][0]']         
                                                                                                  
 batch_normalization_380 (Batch  (None, 5, 5, 224)   672         ['conv2d_380[0][0]']             
 Normalization)                                                                                   
                                                                                                  
 activation_380 (Activation)    (None, 5, 5, 224)    0           ['batch_normalization_380[0][0]']
                                                                                                  
 conv2d_378 (Conv2D)            (None, 5, 5, 192)    399360      ['block8_3_ac[0][0]']            
                                                                                                  
 conv2d_381 (Conv2D)            (None, 5, 5, 256)    172032      ['activation_380[0][0]']         
                                                                                                  
 batch_normalization_378 (Batch  (None, 5, 5, 192)   576         ['conv2d_378[0][0]']             
 Normalization)                                                                                   
                                                                                                  
 batch_normalization_381 (Batch  (None, 5, 5, 256)   768         ['conv2d_381[0][0]']             
 Normalization)                                                                                   
                                                                                                  
 activation_378 (Activation)    (None, 5, 5, 192)    0           ['batch_normalization_378[0][0]']
                                                                                                  
 activation_381 (Activation)    (None, 5, 5, 256)    0           ['batch_normalization_381[0][0]']
                                                                                                  
 block8_4_mixed (Concatenate)   (None, 5, 5, 448)    0           ['activation_378[0][0]',         
                                                                  'activation_381[0][0]']         
                                                                                                  
 block8_4_conv (Conv2D)         (None, 5, 5, 2080)   933920      ['block8_4_mixed[0][0]']         
                                                                                                  
 block8_4 (Lambda)              (None, 5, 5, 2080)   0           ['block8_3_ac[0][0]',            
                                                                  'block8_4_conv[0][0]']          
                                                                                                  
 block8_4_ac (Activation)       (None, 5, 5, 2080)   0           ['block8_4[0][0]']               
                                                                                                  
 conv2d_383 (Conv2D)            (None, 5, 5, 192)    399360      ['block8_4_ac[0][0]']            
                                                                                                  
 batch_normalization_383 (Batch  (None, 5, 5, 192)   576         ['conv2d_383[0][0]']             
 Normalization)                                                                                   
                                                                                                  
 activation_383 (Activation)    (None, 5, 5, 192)    0           ['batch_normalization_383[0][0]']
                                                                                                  
 conv2d_384 (Conv2D)            (None, 5, 5, 224)    129024      ['activation_383[0][0]']         
                                                                                                  
 batch_normalization_384 (Batch  (None, 5, 5, 224)   672         ['conv2d_384[0][0]']             
 Normalization)                                                                                   
                                                                                                  
 activation_384 (Activation)    (None, 5, 5, 224)    0           ['batch_normalization_384[0][0]']
                                                                                                  
 conv2d_382 (Conv2D)            (None, 5, 5, 192)    399360      ['block8_4_ac[0][0]']            
                                                                                                  
 conv2d_385 (Conv2D)            (None, 5, 5, 256)    172032      ['activation_384[0][0]']         
                                                                                                  
 batch_normalization_382 (Batch  (None, 5, 5, 192)   576         ['conv2d_382[0][0]']             
 Normalization)                                                                                   
                                                                                                  
 batch_normalization_385 (Batch  (None, 5, 5, 256)   768         ['conv2d_385[0][0]']             
 Normalization)                                                                                   
                                                                                                  
 activation_382 (Activation)    (None, 5, 5, 192)    0           ['batch_normalization_382[0][0]']
                                                                                                  
 activation_385 (Activation)    (None, 5, 5, 256)    0           ['batch_normalization_385[0][0]']
                                                                                                  
 block8_5_mixed (Concatenate)   (None, 5, 5, 448)    0           ['activation_382[0][0]',         
                                                                  'activation_385[0][0]']         
                                                                                                  
 block8_5_conv (Conv2D)         (None, 5, 5, 2080)   933920      ['block8_5_mixed[0][0]']         
                                                                                                  
 block8_5 (Lambda)              (None, 5, 5, 2080)   0           ['block8_4_ac[0][0]',            
                                                                  'block8_5_conv[0][0]']          
                                                                                                  
 block8_5_ac (Activation)       (None, 5, 5, 2080)   0           ['block8_5[0][0]']               
                                                                                                  
 conv2d_387 (Conv2D)            (None, 5, 5, 192)    399360      ['block8_5_ac[0][0]']            
                                                                                                  
 batch_normalization_387 (Batch  (None, 5, 5, 192)   576         ['conv2d_387[0][0]']             
 Normalization)                                                                                   
                                                                                                  
 activation_387 (Activation)    (None, 5, 5, 192)    0           ['batch_normalization_387[0][0]']
                                                                                                  
 conv2d_388 (Conv2D)            (None, 5, 5, 224)    129024      ['activation_387[0][0]']         
                                                                                                  
 batch_normalization_388 (Batch  (None, 5, 5, 224)   672         ['conv2d_388[0][0]']             
 Normalization)                                                                                   
                                                                                                  
 activation_388 (Activation)    (None, 5, 5, 224)    0           ['batch_normalization_388[0][0]']
                                                                                                  
 conv2d_386 (Conv2D)            (None, 5, 5, 192)    399360      ['block8_5_ac[0][0]']            
                                                                                                  
 conv2d_389 (Conv2D)            (None, 5, 5, 256)    172032      ['activation_388[0][0]']         
                                                                                                  
 batch_normalization_386 (Batch  (None, 5, 5, 192)   576         ['conv2d_386[0][0]']             
 Normalization)                                                                                   
                                                                                                  
 batch_normalization_389 (Batch  (None, 5, 5, 256)   768         ['conv2d_389[0][0]']             
 Normalization)                                                                                   
                                                                                                  
 activation_386 (Activation)    (None, 5, 5, 192)    0           ['batch_normalization_386[0][0]']
                                                                                                  
 activation_389 (Activation)    (None, 5, 5, 256)    0           ['batch_normalization_389[0][0]']
                                                                                                  
 block8_6_mixed (Concatenate)   (None, 5, 5, 448)    0           ['activation_386[0][0]',         
                                                                  'activation_389[0][0]']         
                                                                                                  
 block8_6_conv (Conv2D)         (None, 5, 5, 2080)   933920      ['block8_6_mixed[0][0]']         
                                                                                                  
 block8_6 (Lambda)              (None, 5, 5, 2080)   0           ['block8_5_ac[0][0]',            
                                                                  'block8_6_conv[0][0]']          
                                                                                                  
 block8_6_ac (Activation)       (None, 5, 5, 2080)   0           ['block8_6[0][0]']               
                                                                                                  
 conv2d_391 (Conv2D)            (None, 5, 5, 192)    399360      ['block8_6_ac[0][0]']            
                                                                                                  
 batch_normalization_391 (Batch  (None, 5, 5, 192)   576         ['conv2d_391[0][0]']             
 Normalization)                                                                                   
                                                                                                  
 activation_391 (Activation)    (None, 5, 5, 192)    0           ['batch_normalization_391[0][0]']
                                                                                                  
 conv2d_392 (Conv2D)            (None, 5, 5, 224)    129024      ['activation_391[0][0]']         
                                                                                                  
 batch_normalization_392 (Batch  (None, 5, 5, 224)   672         ['conv2d_392[0][0]']             
 Normalization)                                                                                   
                                                                                                  
 activation_392 (Activation)    (None, 5, 5, 224)    0           ['batch_normalization_392[0][0]']
                                                                                                  
 conv2d_390 (Conv2D)            (None, 5, 5, 192)    399360      ['block8_6_ac[0][0]']            
                                                                                                  
 conv2d_393 (Conv2D)            (None, 5, 5, 256)    172032      ['activation_392[0][0]']         
                                                                                                  
 batch_normalization_390 (Batch  (None, 5, 5, 192)   576         ['conv2d_390[0][0]']             
 Normalization)                                                                                   
                                                                                                  
 batch_normalization_393 (Batch  (None, 5, 5, 256)   768         ['conv2d_393[0][0]']             
 Normalization)                                                                                   
                                                                                                  
 activation_390 (Activation)    (None, 5, 5, 192)    0           ['batch_normalization_390[0][0]']
                                                                                                  
 activation_393 (Activation)    (None, 5, 5, 256)    0           ['batch_normalization_393[0][0]']
                                                                                                  
 block8_7_mixed (Concatenate)   (None, 5, 5, 448)    0           ['activation_390[0][0]',         
                                                                  'activation_393[0][0]']         
                                                                                                  
 block8_7_conv (Conv2D)         (None, 5, 5, 2080)   933920      ['block8_7_mixed[0][0]']         
                                                                                                  
 block8_7 (Lambda)              (None, 5, 5, 2080)   0           ['block8_6_ac[0][0]',            
                                                                  'block8_7_conv[0][0]']          
                                                                                                  
 block8_7_ac (Activation)       (None, 5, 5, 2080)   0           ['block8_7[0][0]']               
                                                                                                  
 conv2d_395 (Conv2D)            (None, 5, 5, 192)    399360      ['block8_7_ac[0][0]']            
                                                                                                  
 batch_normalization_395 (Batch  (None, 5, 5, 192)   576         ['conv2d_395[0][0]']             
 Normalization)                                                                                   
                                                                                                  
 activation_395 (Activation)    (None, 5, 5, 192)    0           ['batch_normalization_395[0][0]']
                                                                                                  
 conv2d_396 (Conv2D)            (None, 5, 5, 224)    129024      ['activation_395[0][0]']         
                                                                                                  
 batch_normalization_396 (Batch  (None, 5, 5, 224)   672         ['conv2d_396[0][0]']             
 Normalization)                                                                                   
                                                                                                  
 activation_396 (Activation)    (None, 5, 5, 224)    0           ['batch_normalization_396[0][0]']
                                                                                                  
 conv2d_394 (Conv2D)            (None, 5, 5, 192)    399360      ['block8_7_ac[0][0]']            
                                                                                                  
 conv2d_397 (Conv2D)            (None, 5, 5, 256)    172032      ['activation_396[0][0]']         
                                                                                                  
 batch_normalization_394 (Batch  (None, 5, 5, 192)   576         ['conv2d_394[0][0]']             
 Normalization)                                                                                   
                                                                                                  
 batch_normalization_397 (Batch  (None, 5, 5, 256)   768         ['conv2d_397[0][0]']             
 Normalization)                                                                                   
                                                                                                  
 activation_394 (Activation)    (None, 5, 5, 192)    0           ['batch_normalization_394[0][0]']
                                                                                                  
 activation_397 (Activation)    (None, 5, 5, 256)    0           ['batch_normalization_397[0][0]']
                                                                                                  
 block8_8_mixed (Concatenate)   (None, 5, 5, 448)    0           ['activation_394[0][0]',         
                                                                  'activation_397[0][0]']         
                                                                                                  
 block8_8_conv (Conv2D)         (None, 5, 5, 2080)   933920      ['block8_8_mixed[0][0]']         
                                                                                                  
 block8_8 (Lambda)              (None, 5, 5, 2080)   0           ['block8_7_ac[0][0]',            
                                                                  'block8_8_conv[0][0]']          
                                                                                                  
 block8_8_ac (Activation)       (None, 5, 5, 2080)   0           ['block8_8[0][0]']               
                                                                                                  
 conv2d_399 (Conv2D)            (None, 5, 5, 192)    399360      ['block8_8_ac[0][0]']            
                                                                                                  
 batch_normalization_399 (Batch  (None, 5, 5, 192)   576         ['conv2d_399[0][0]']             
 Normalization)                                                                                   
                                                                                                  
 activation_399 (Activation)    (None, 5, 5, 192)    0           ['batch_normalization_399[0][0]']
                                                                                                  
 conv2d_400 (Conv2D)            (None, 5, 5, 224)    129024      ['activation_399[0][0]']         
                                                                                                  
 batch_normalization_400 (Batch  (None, 5, 5, 224)   672         ['conv2d_400[0][0]']             
 Normalization)                                                                                   
                                                                                                  
 activation_400 (Activation)    (None, 5, 5, 224)    0           ['batch_normalization_400[0][0]']
                                                                                                  
 conv2d_398 (Conv2D)            (None, 5, 5, 192)    399360      ['block8_8_ac[0][0]']            
                                                                                                  
 conv2d_401 (Conv2D)            (None, 5, 5, 256)    172032      ['activation_400[0][0]']         
                                                                                                  
 batch_normalization_398 (Batch  (None, 5, 5, 192)   576         ['conv2d_398[0][0]']             
 Normalization)                                                                                   
                                                                                                  
 batch_normalization_401 (Batch  (None, 5, 5, 256)   768         ['conv2d_401[0][0]']             
 Normalization)                                                                                   
                                                                                                  
 activation_398 (Activation)    (None, 5, 5, 192)    0           ['batch_normalization_398[0][0]']
                                                                                                  
 activation_401 (Activation)    (None, 5, 5, 256)    0           ['batch_normalization_401[0][0]']
                                                                                                  
 block8_9_mixed (Concatenate)   (None, 5, 5, 448)    0           ['activation_398[0][0]',         
                                                                  'activation_401[0][0]']         
                                                                                                  
 block8_9_conv (Conv2D)         (None, 5, 5, 2080)   933920      ['block8_9_mixed[0][0]']         
                                                                                                  
 block8_9 (Lambda)              (None, 5, 5, 2080)   0           ['block8_8_ac[0][0]',            
                                                                  'block8_9_conv[0][0]']          
                                                                                                  
 block8_9_ac (Activation)       (None, 5, 5, 2080)   0           ['block8_9[0][0]']               
                                                                                                  
 conv2d_403 (Conv2D)            (None, 5, 5, 192)    399360      ['block8_9_ac[0][0]']            
                                                                                                  
 batch_normalization_403 (Batch  (None, 5, 5, 192)   576         ['conv2d_403[0][0]']             
 Normalization)                                                                                   
                                                                                                  
 activation_403 (Activation)    (None, 5, 5, 192)    0           ['batch_normalization_403[0][0]']
                                                                                                  
 conv2d_404 (Conv2D)            (None, 5, 5, 224)    129024      ['activation_403[0][0]']         
                                                                                                  
 batch_normalization_404 (Batch  (None, 5, 5, 224)   672         ['conv2d_404[0][0]']             
 Normalization)                                                                                   
                                                                                                  
 activation_404 (Activation)    (None, 5, 5, 224)    0           ['batch_normalization_404[0][0]']
                                                                                                  
 conv2d_402 (Conv2D)            (None, 5, 5, 192)    399360      ['block8_9_ac[0][0]']            
                                                                                                  
 conv2d_405 (Conv2D)            (None, 5, 5, 256)    172032      ['activation_404[0][0]']         
                                                                                                  
 batch_normalization_402 (Batch  (None, 5, 5, 192)   576         ['conv2d_402[0][0]']             
 Normalization)                                                                                   
                                                                                                  
 batch_normalization_405 (Batch  (None, 5, 5, 256)   768         ['conv2d_405[0][0]']             
 Normalization)                                                                                   
                                                                                                  
 activation_402 (Activation)    (None, 5, 5, 192)    0           ['batch_normalization_402[0][0]']
                                                                                                  
 activation_405 (Activation)    (None, 5, 5, 256)    0           ['batch_normalization_405[0][0]']
                                                                                                  
 block8_10_mixed (Concatenate)  (None, 5, 5, 448)    0           ['activation_402[0][0]',         
                                                                  'activation_405[0][0]']         
                                                                                                  
 block8_10_conv (Conv2D)        (None, 5, 5, 2080)   933920      ['block8_10_mixed[0][0]']        
                                                                                                  
 block8_10 (Lambda)             (None, 5, 5, 2080)   0           ['block8_9_ac[0][0]',            
                                                                  'block8_10_conv[0][0]']         
                                                                                                  
 conv_7b (Conv2D)               (None, 5, 5, 1536)   3194880     ['block8_10[0][0]']              
                                                                                                  
 conv_7b_bn (BatchNormalization  (None, 5, 5, 1536)  4608        ['conv_7b[0][0]']                
 )                                                                                                
                                                                                                  
 conv_7b_ac (Activation)        (None, 5, 5, 1536)   0           ['conv_7b_bn[0][0]']             
                                                                                                  
 flatten_1 (Flatten)            (None, 38400)        0           ['conv_7b_ac[0][0]']             
                                                                                                  
 dense_3 (Dense)                (None, 500)          19200500    ['flatten_1[0][0]']              
                                                                                                  
 dense_4 (Dense)                (None, 250)          125250      ['dense_3[0][0]']                
                                                                                                  
 dense_5 (Dense)                (None, 4)            1004        ['dense_4[0][0]']                
                                                                                                  
==================================================================================================
Total params: 73,663,490
Trainable params: 19,326,754
Non-trainable params: 54,336,736
